…
12:39:13 | INFO    | src.train | norm K  : mean=['+0.223', '+3.950', '+1.754'] std=['3.763', '11.925', '5.925']
12:39:13 | INFO    | src.train | norm V  : mean=['+0.001', '+1.025', '+0.442'] std=['0.369', '0.697', '0.384']
12:39:14 | INFO    | src.train | 
12:39:14 | INFO    | src.train | --- architecture ----------------------------------------------
12:39:14 | INFO    | src.train |   QKVHalluDetector(
12:39:14 | INFO    | src.train |     (backbones): ModuleList(
12:39:14 | INFO    | src.train |       (0-2): 3 x ScratchCNN(
12:39:14 | INFO    | src.train |         (stem): Sequential(
12:39:14 | INFO    | src.train |           (0): Conv2d(3, 32, kernel_size=(3, 3), stride=(1, 1), padding=(1, 1), bias=False)
12:39:14 | INFO    | src.train |           (1): BatchNorm2d(32, eps=1e-05, momentum=0.1, affine=True, bias=True, track_running_stats=True)
12:39:14 | INFO    | src.train |           (2): GELU(approximate='none')
12:39:14 | INFO    | src.train |         )
12:39:14 | INFO    | src.train |         (blocks): Sequential(
12:39:14 | INFO    | src.train |           (0): ResBlock(
12:39:14 | INFO    | src.train |             (conv1): Conv2d(32, 32, kernel_size=(3, 3), stride=(1, 1), padding=(1, 1), bias=False)
12:39:14 | INFO    | src.train |             (bn1): BatchNorm2d(32, eps=1e-05, momentum=0.1, affine=True, bias=True, track_running_stats=True)
12:39:14 | INFO    | src.train |             (conv2): Conv2d(32, 32, kernel_size=(3, 3), stride=(1, 1), padding=(1, 1), bias=False)
12:39:14 | INFO    | src.train |             (bn2): BatchNorm2d(32, eps=1e-05, momentum=0.1, affine=True, bias=True, track_running_stats=True)
12:39:14 | INFO    | src.train |             (act): GELU(approximate='none')
12:39:14 | INFO    | src.train |             (short): Identity()
12:39:14 | INFO    | src.train |           )
12:39:14 | INFO    | src.train |           (1): ResBlock(
12:39:14 | INFO    | src.train |             (conv1): Conv2d(32, 64, kernel_size=(3, 3), stride=(2, 2), padding=(1, 1), bias=False)
12:39:14 | INFO    | src.train |             (bn1): BatchNorm2d(64, eps=1e-05, momentum=0.1, affine=True, bias=True, track_running_stats=True)
12:39:14 | INFO    | src.train |             (conv2): Conv2d(64, 64, kernel_size=(3, 3), stride=(1, 1), padding=(1, 1), bias=False)
12:39:14 | INFO    | src.train |             (bn2): BatchNorm2d(64, eps=1e-05, momentum=0.1, affine=True, bias=True, track_running_stats=True)
12:39:14 | INFO    | src.train |             (act): GELU(approximate='none')
12:39:14 | INFO    | src.train |             (short): Sequential(
12:39:14 | INFO    | src.train |               (0): Conv2d(32, 64, kernel_size=(1, 1), stride=(2, 2), bias=False)
12:39:14 | INFO    | src.train |               (1): BatchNorm2d(64, eps=1e-05, momentum=0.1, affine=True, bias=True, track_running_stats=True)
12:39:14 | INFO    | src.train |             )
12:39:14 | INFO    | src.train |           )
12:39:14 | INFO    | src.train |           (2): ResBlock(
12:39:14 | INFO    | src.train |             (conv1): Conv2d(64, 128, kernel_size=(3, 3), stride=(2, 2), padding=(1, 1), bias=False)
12:39:14 | INFO    | src.train |             (bn1): BatchNorm2d(128, eps=1e-05, momentum=0.1, affine=True, bias=True, track_running_stats=True)
12:39:14 | INFO    | src.train |             (conv2): Conv2d(128, 128, kernel_size=(3, 3), stride=(1, 1), padding=(1, 1), bias=False)
12:39:14 | INFO    | src.train |             (bn2): BatchNorm2d(128, eps=1e-05, momentum=0.1, affine=True, bias=True, track_running_stats=True)
12:39:14 | INFO    | src.train |             (act): GELU(approximate='none')
12:39:14 | INFO    | src.train |             (short): Sequential(
12:39:14 | INFO    | src.train |               (0): Conv2d(64, 128, kernel_size=(1, 1), stride=(2, 2), bias=False)
12:39:14 | INFO    | src.train |               (1): BatchNorm2d(128, eps=1e-05, momentum=0.1, affine=True, bias=True, track_running_stats=True)
12:39:14 | INFO    | src.train |             )
12:39:14 | INFO    | src.train |           )
12:39:14 | INFO    | src.train |         )
12:39:14 | INFO    | src.train |         (pool): AdaptiveAvgPool2d(output_size=1)
12:39:14 | INFO    | src.train |         (proj): Linear(in_features=128, out_features=256, bias=True)
12:39:14 | INFO    | src.train |         (drop): Dropout(p=0.3, inplace=False)
12:39:14 | INFO    | src.train |       )
12:39:14 | INFO    | src.train |     )
12:39:14 | INFO    | src.train |     (fusion): ConcatMLPFusion(
12:39:14 | INFO    | src.train |       (net): Sequential(
12:39:14 | INFO    | src.train |         (0): LayerNorm((768,), eps=1e-05, elementwise_affine=True, bias=True)
12:39:14 | INFO    | src.train |         (1): Linear(in_features=768, out_features=256, bias=True)
12:39:14 | INFO    | src.train |         (2): GELU(approximate='none')
12:39:14 | INFO    | src.train |         (3): Linear(in_features=256, out_features=256, bias=True)
12:39:14 | INFO    | src.train |       )
12:39:14 | INFO    | src.train |     )
12:39:14 | INFO    | src.train |     (temporal): TemporalEncoder(
12:39:14 | INFO    | src.train |       (convs): Sequential(
12:39:14 | INFO    | src.train |         (0): Conv1d(256, 256, kernel_size=(3,), stride=(1,), padding=(1,))
12:39:14 | INFO    | src.train |         (1): BatchNorm1d(256, eps=1e-05, momentum=0.1, affine=True, bias=True, track_running_stats=True)
12:39:14 | INFO    | src.train |         (2): GELU(approximate='none')
12:39:14 | INFO    | src.train |         (3): Conv1d(256, 256, kernel_size=(3,), stride=(1,), padding=(1,))
12:39:14 | INFO    | src.train |         (4): BatchNorm1d(256, eps=1e-05, momentum=0.1, affine=True, bias=True, track_running_stats=True)
12:39:14 | INFO    | src.train |         (5): GELU(approximate='none')
12:39:14 | INFO    | src.train |       )
12:39:14 | INFO    | src.train |       (lstm): LSTM(256, 256, batch_first=True, bidirectional=True)
12:39:14 | INFO    | src.train |       (pool): MaskedAttentionPool(
12:39:14 | INFO    | src.train |         (score): Linear(in_features=512, out_features=1, bias=True)
12:39:14 | INFO    | src.train |       )
12:39:14 | INFO    | src.train |       (drop): Dropout(p=0.3, inplace=False)
12:39:14 | INFO    | src.train |     )
12:39:14 | INFO    | src.train |     (head): Sequential(
12:39:14 | INFO    | src.train |       (0): LayerNorm((512,), eps=1e-05, elementwise_affine=True, bias=True)
12:39:14 | INFO    | src.train |       (1): Dropout(p=0.3, inplace=False)
12:39:14 | INFO    | src.train |       (2): Linear(in_features=512, out_features=1, bias=True)
12:39:14 | INFO    | src.train |     )
12:39:14 | INFO    | src.train |   )
12:39:14 | INFO    | src.train | 
12:39:14 | INFO    | src.train | --- parameters ------------------------------------------------
12:39:14 | INFO    | src.train |   backbones (stream 1)     1,021,152  (37.3%)
12:39:14 | INFO    | src.train |   fusion (stream 1)          264,192  ( 9.7%)
…
